Model: B5_1_3_ClassicCNN
Notes: Aug=1, Early=0

MODEL SUMMARY
Model: "sequential_13"
┏━━━━━━━━━━━━━━━━━━━━━━━━━━━━━━━━━┳━━━━━━━━━━━━━━━━━━━━━━━━┳━━━━━━━━━━━━━━━┓
┃ Layer (type)                    ┃ Output Shape           ┃       Param # ┃
┡━━━━━━━━━━━━━━━━━━━━━━━━━━━━━━━━━╇━━━━━━━━━━━━━━━━━━━━━━━━╇━━━━━━━━━━━━━━━┩
│ sequential_12 (Sequential)      │ (None, 96, 96, 1)      │             0 │
├─────────────────────────────────┼────────────────────────┼───────────────┤
│ conv2d_24 (Conv2D)              │ (None, 94, 94, 32)     │           320 │
├─────────────────────────────────┼────────────────────────┼───────────────┤
│ max_pooling2d_24 (MaxPooling2D) │ (None, 47, 47, 32)     │             0 │
├─────────────────────────────────┼────────────────────────┼───────────────┤
│ conv2d_25 (Conv2D)              │ (None, 45, 45, 64)     │        18,496 │
├─────────────────────────────────┼────────────────────────┼───────────────┤
│ max_pooling2d_25 (MaxPooling2D) │ (None, 22, 22, 64)     │             0 │
├─────────────────────────────────┼────────────────────────┼───────────────┤
│ conv2d_26 (Conv2D)              │ (None, 20, 20, 128)    │        73,856 │
├─────────────────────────────────┼────────────────────────┼───────────────┤
│ max_pooling2d_26 (MaxPooling2D) │ (None, 10, 10, 128)    │             0 │
├─────────────────────────────────┼────────────────────────┼───────────────┤
│ flatten_8 (Flatten)             │ (None, 12800)          │             0 │
├─────────────────────────────────┼────────────────────────┼───────────────┤
│ dense_16 (Dense)                │ (None, 256)            │     3,277,056 │
├─────────────────────────────────┼────────────────────────┼───────────────┤
│ dropout_8 (Dropout)             │ (None, 256)            │             0 │
├─────────────────────────────────┼────────────────────────┼───────────────┤
│ dense_17 (Dense)                │ (None, 5)              │         1,285 │
└─────────────────────────────────┴────────────────────────┴───────────────┘
 Total params: 10,113,041 (38.58 MB)
 Trainable params: 3,371,013 (12.86 MB)
 Non-trainable params: 0 (0.00 B)
 Optimizer params: 6,742,028 (25.72 MB)

Parameters: 3371013
Test Loss: 0.3875308036804199
Test Accuracy: 0.9277504086494446
Macro F1: 0.9252930586794758

              precision    recall  f1-score   support

…
Peak RAM usage KB: 2724684.0
FLOPs: 146199390
MACs: 73099695.0
MMACs: 73.10

Energy per inference (J): 0.0006761777400970459
Energy per inference (mJ): 0.676

Operator used: 
['CONV_2D', 'DELEGATE', 'FULLY_CONNECTED', 'MAX_POOL_2D', 'PACK', 'RESHAPE', 'SHAPE', 'SOFTMAX', 'STRIDED_SLICE']

Model: B5_4_4_MobileNetV1

Model: "functional_8"
┏━━━━━━━━━━━━━━━━━━━━━━━━━━━━━━━━━┳━━━━━━━━━━━━━━━━━━━━━━━━┳━━━━━━━━━━━━━━━┓
┃ Layer (type)                    ┃ Output Shape           ┃       Param # ┃
┡━━━━━━━━━━━━━━━━━━━━━━━━━━━━━━━━━╇━━━━━━━━━━━━━━━━━━━━━━━━╇━━━━━━━━━━━━━━━┩
│ input_layer_7 (InputLayer)      │ (None, 96, 96, 1)      │             0 │
├─────────────────────────────────┼────────────────────────┼───────────────┤
│ sequential_3 (Sequential)       │ (None, 96, 96, 1)      │             0 │
├─────────────────────────────────┼────────────────────────┼───────────────┤
│ conv2d_42 (Conv2D)              │ (None, 48, 48, 11)     │            99 │
├─────────────────────────────────┼────────────────────────┼───────────────┤
│ batch_normalization_78          │ (None, 48, 48, 11)     │            44 │
│ (BatchNormalization)            │                        │               │
├─────────────────────────────────┼────────────────────────┼───────────────┤
│ re_lu_78 (ReLU)                 │ (None, 48, 48, 11)     │             0 │
├─────────────────────────────────┼────────────────────────┼───────────────┤
│ depthwise_conv2d_36             │ (None, 48, 48, 11)     │            99 │
│ (DepthwiseConv2D)               │                        │               │
├─────────────────────────────────┼────────────────────────┼───────────────┤
│ batch_normalization_79          │ (None, 48, 48, 11)     │            44 │
│ (BatchNormalization)            │                        │               │
├─────────────────────────────────┼────────────────────────┼───────────────┤
│ re_lu_79 (ReLU)                 │ (None, 48, 48, 11)     │             0 │
├─────────────────────────────────┼────────────────────────┼───────────────┤
│ conv2d_43 (Conv2D)              │ (None, 48, 48, 22)     │           242 │
├─────────────────────────────────┼────────────────────────┼───────────────┤
│ batch_normalization_80          │ (None, 48, 48, 22)     │            88 │
│ (BatchNormalization)            │                        │               │
├─────────────────────────────────┼────────────────────────┼───────────────┤
│ re_lu_80 (ReLU)                 │ (None, 48, 48, 22)     │             0 │
├─────────────────────────────────┼────────────────────────┼───────────────┤
│ depthwise_conv2d_37             │ (None, 24, 24, 22)     │           198 │
│ (DepthwiseConv2D)               │                        │               │
├─────────────────────────────────┼────────────────────────┼───────────────┤
│ batch_normalization_81          │ (None, 24, 24, 22)     │            88 │
│ (BatchNormalization)            │                        │               │
├─────────────────────────────────┼────────────────────────┼───────────────┤
│ re_lu_81 (ReLU)                 │ (None, 24, 24, 22)     │             0 │
├─────────────────────────────────┼────────────────────────┼───────────────┤
│ conv2d_44 (Conv2D)              │ (None, 24, 24, 44)     │           968 │
├─────────────────────────────────┼────────────────────────┼───────────────┤
│ batch_normalization_82          │ (None, 24, 24, 44)     │           176 │
│ (BatchNormalization)            │                        │               │
├─────────────────────────────────┼────────────────────────┼───────────────┤
│ re_lu_82 (ReLU)                 │ (None, 24, 24, 44)     │             0 │
├─────────────────────────────────┼────────────────────────┼───────────────┤
│ depthwise_conv2d_38             │ (None, 24, 24, 44)     │           396 │
│ (DepthwiseConv2D)               │                        │               │
├─────────────────────────────────┼────────────────────────┼───────────────┤
│ batch_normalization_83          │ (None, 24, 24, 44)     │           176 │
│ (BatchNormalization)            │                        │               │
├─────────────────────────────────┼────────────────────────┼───────────────┤
│ re_lu_83 (ReLU)                 │ (None, 24, 24, 44)     │             0 │
├─────────────────────────────────┼────────────────────────┼───────────────┤
│ conv2d_45 (Conv2D)              │ (None, 24, 24, 44)     │         1,936 │
├─────────────────────────────────┼────────────────────────┼───────────────┤
│ batch_normalization_84          │ (None, 24, 24, 44)     │           176 │
│ (BatchNormalization)            │                        │               │
├─────────────────────────────────┼────────────────────────┼───────────────┤
│ re_lu_84 (ReLU)                 │ (None, 24, 24, 44)     │             0 │
├─────────────────────────────────┼────────────────────────┼───────────────┤
│ depthwise_conv2d_39             │ (None, 12, 12, 44)     │           396 │
│ (DepthwiseConv2D)               │                        │               │
├─────────────────────────────────┼────────────────────────┼───────────────┤
│ batch_normalization_85          │ (None, 12, 12, 44)     │           176 │
│ (BatchNormalization)            │                        │               │
├─────────────────────────────────┼────────────────────────┼───────────────┤
│ re_lu_85 (ReLU)                 │ (None, 12, 12, 44)     │             0 │
├─────────────────────────────────┼────────────────────────┼───────────────┤
│ conv2d_46 (Conv2D)              │ (None, 12, 12, 89)     │         3,916 │
├─────────────────────────────────┼────────────────────────┼───────────────┤
│ batch_normalization_86          │ (None, 12, 12, 89)     │           356 │
│ (BatchNormalization)            │                        │               │
├─────────────────────────────────┼────────────────────────┼───────────────┤
│ re_lu_86 (ReLU)                 │ (None, 12, 12, 89)     │             0 │
├─────────────────────────────────┼────────────────────────┼───────────────┤
│ depthwise_conv2d_40             │ (None, 12, 12, 89)     │           801 │
│ (DepthwiseConv2D)               │                        │               │
├─────────────────────────────────┼────────────────────────┼───────────────┤
│ batch_normalization_87          │ (None, 12, 12, 89)     │           356 │
│ (BatchNormalization)            │                        │               │
├─────────────────────────────────┼────────────────────────┼───────────────┤
│ re_lu_87 (ReLU)                 │ (None, 12, 12, 89)     │             0 │
├─────────────────────────────────┼────────────────────────┼───────────────┤
│ conv2d_47 (Conv2D)              │ (None, 12, 12, 89)     │         7,921 │
├─────────────────────────────────┼────────────────────────┼───────────────┤
│ batch_normalization_88          │ (None, 12, 12, 89)     │           356 │
│ (BatchNormalization)            │                        │               │
├─────────────────────────────────┼────────────────────────┼───────────────┤
│ re_lu_88 (ReLU)                 │ (None, 12, 12, 89)     │             0 │
├─────────────────────────────────┼────────────────────────┼───────────────┤
│ depthwise_conv2d_41             │ (None, 6, 6, 89)       │           801 │
│ (DepthwiseConv2D)               │                        │               │
├─────────────────────────────────┼────────────────────────┼───────────────┤
│ batch_normalization_89          │ (None, 6, 6, 89)       │           356 │
│ (BatchNormalization)            │                        │               │
├─────────────────────────────────┼────────────────────────┼───────────────┤
│ re_lu_89 (ReLU)                 │ (None, 6, 6, 89)       │             0 │
├─────────────────────────────────┼────────────────────────┼───────────────┤
│ conv2d_48 (Conv2D)              │ (None, 6, 6, 179)      │        15,931 │
├─────────────────────────────────┼────────────────────────┼───────────────┤
│ batch_normalization_90          │ (None, 6, 6, 179)      │           716 │
│ (BatchNormalization)            │                        │               │
├─────────────────────────────────┼────────────────────────┼───────────────┤
│ re_lu_90 (ReLU)                 │ (None, 6, 6, 179)      │             0 │
├─────────────────────────────────┼────────────────────────┼───────────────┤
│ global_average_pooling2d_6      │ (None, 179)            │             0 │
│ (GlobalAveragePooling2D)        │                        │               │
├─────────────────────────────────┼────────────────────────┼───────────────┤
│ dropout_3 (Dropout)             │ (None, 179)            │             0 │
├─────────────────────────────────┼────────────────────────┼───────────────┤
│ dense_6 (Dense)                 │ (None, 5)              │           900 │
└─────────────────────────────────┴────────────────────────┴───────────────┘
 Total params: 37,712 (147.31 KB)
 Trainable params: 36,158 (141.24 KB)
 Non-trainable params: 1,554 (6.07 KB)


Total Parameters: 37712

Test Loss: 0.7387697100639343
Test Accuracy: 0.7339901328086853
Test Macro F1: 0.7228605564089434

Classification Report:
              precision    recall  f1-score   support

           0       0.75      0.72      0.73        92
…
│                     │ 96)               │            │                   │
├─────────────────────┼───────────────────┼────────────┼───────────────────┤
│ conv2d_180 (Conv2D) │ (None, 12, 12,    │     41,568 │ conv2d_178[0][0]  │
│                     │ 96)               │            │                   │
├─────────────────────┼───────────────────┼────────────┼───────────────────┤
│ concatenate_51      │ (None, 12, 12,    │          0 │ conv2d_179[0][0], │
│ (Concatenate)       │ 192)              │            │ conv2d_180[0][0]  │
├─────────────────────┼───────────────────┼────────────┼───────────────────┤
│ max_pooling2d_38    │ (None, 6, 6, 192) │          0 │ concatenate_51[0… │
│ (MaxPooling2D)      │                   │            │                   │
├─────────────────────┼───────────────────┼────────────┼───────────────────┤
│ conv2d_181 (Conv2D) │ (None, 6, 6, 5)   │        965 │ max_pooling2d_38… │
├─────────────────────┼───────────────────┼────────────┼───────────────────┤
│ batch_normalizatio… │ (None, 6, 6, 5)   │         20 │ conv2d_181[0][0]  │
│ (BatchNormalizatio… │                   │            │                   │
├─────────────────────┼───────────────────┼────────────┼───────────────────┤
│ global_average_poo… │ (None, 5)         │          0 │ batch_normalizat… │
│ (GlobalAveragePool… │                   │            │                   │
├─────────────────────┼───────────────────┼────────────┼───────────────────┤
│ softmax_12          │ (None, 5)         │          0 │ global_average_p… │
│ (Softmax)           │                   │            │                   │
└─────────────────────┴───────────────────┴────────────┴───────────────────┘
 Total params: 402,601 (1.54 MB)
 Trainable params: 134,175 (524.12 KB)
 Non-trainable params: 74 (296.00 B)
 Optimizer params: 268,352 (1.02 MB)

Total Parameters: 134249

Test Loss: 0.8890135288238525
Test Accuracy: 0.7323480844497681
…
│ (Concatenate)       │ 48)               │            │ conv2d_5[0][0]    │
├─────────────────────┼───────────────────┼────────────┼───────────────────┤
│ lambda_1 (Lambda)   │ (None, 12, 12,    │          0 │ concatenate_1[0]… │
│                     │ 48)               │            │                   │
├─────────────────────┼───────────────────┼────────────┼───────────────────┤
│ conv2d_7 (Conv2D)   │ (None, 12, 12,    │      1,568 │ lambda_1[0][0]    │
│                     │ 32)               │            │                   │
├─────────────────────┼───────────────────┼────────────┼───────────────────┤
│ depthwise_conv2d_3  │ (None, 6, 6, 48)  │        480 │ lambda_1[0][0]    │
│ (DepthwiseConv2D)   │                   │            │                   │
├─────────────────────┼───────────────────┼────────────┼───────────────────┤
│ depthwise_conv2d_4  │ (None, 6, 6, 32)  │        320 │ conv2d_7[0][0]    │
│ (DepthwiseConv2D)   │                   │            │                   │
├─────────────────────┼───────────────────┼────────────┼───────────────────┤
│ conv2d_6 (Conv2D)   │ (None, 6, 6, 32)  │      1,568 │ depthwise_conv2d… │
├─────────────────────┼───────────────────┼────────────┼───────────────────┤
│ conv2d_8 (Conv2D)   │ (None, 6, 6, 32)  │      1,056 │ depthwise_conv2d… │
├─────────────────────┼───────────────────┼────────────┼───────────────────┤
│ concatenate_2       │ (None, 6, 6, 64)  │          0 │ conv2d_6[0][0],   │
│ (Concatenate)       │                   │            │ conv2d_8[0][0]    │
├─────────────────────┼───────────────────┼────────────┼───────────────────┤
│ lambda_2 (Lambda)   │ (None, 6, 6, 64)  │          0 │ concatenate_2[0]… │
├─────────────────────┼───────────────────┼────────────┼───────────────────┤
│ conv2d_9 (Conv2D)   │ (None, 6, 6, 32)  │      2,080 │ lambda_2[0][0]    │
├─────────────────────┼───────────────────┼────────────┼───────────────────┤
│ depthwise_conv2d_5  │ (None, 6, 6, 32)  │        320 │ conv2d_9[0][0]    │
│ (DepthwiseConv2D)   │                   │            │                   │
├─────────────────────┼───────────────────┼────────────┼───────────────────┤
│ conv2d_10 (Conv2D)  │ (None, 6, 6, 32)  │      1,056 │ depthwise_conv2d… │
├─────────────────────┼───────────────────┼────────────┼───────────────────┤
│ concatenate_3       │ (None, 6, 6, 96)  │          0 │ lambda_2[0][0],   │
│ (Concatenate)       │                   │            │ conv2d_10[0][0]   │
├─────────────────────┼───────────────────┼────────────┼───────────────────┤
│ lambda_3 (Lambda)   │ (None, 6, 6, 96)  │          0 │ concatenate_3[0]… │
├─────────────────────┼───────────────────┼────────────┼───────────────────┤
│ global_average_poo… │ (None, 96)        │          0 │ lambda_3[0][0]    │
│ (GlobalAveragePool… │                   │            │                   │
├─────────────────────┼───────────────────┼────────────┼───────────────────┤
│ dropout (Dropout)   │ (None, 96)        │          0 │ global_average_p… │
├─────────────────────┼───────────────────┼────────────┼───────────────────┤
│ dense (Dense)       │ (None, 5)         │        485 │ dropout[0][0]     │
└─────────────────────┴───────────────────┴────────────┴───────────────────┘
 Total params: 33,569 (131.13 KB)
 Trainable params: 11,189 (43.71 KB)
 Non-trainable params: 0 (0.00 B)
 Optimizer params: 22,380 (87.43 KB)

Total Parameters: 11189


Test Loss: 1.1058869361877441
Test Accuracy: 0.7307060956954956
Macro F1: 0.7275153954609542

              precision    recall  f1-score   support
…
FLOPs: 2488734
MACs: 1244367.0
MMACs: 1.24

Energy per inference (J): 5.6388378143310545e-05
Energy per inference (mJ): 0.056

Operator used: 
['CONCATENATION', 'CONV_2D', 'DELEGATE', 'DEPTHWISE_CONV_2D', 'FULLY_CONNECTED', 'MAX_POOL_2D', 'MEAN', 'RESHAPE', 'SOFTMAX', 'TRANSPOSE']
Model: B5_5_1_MiniMobileNetV2

MODEL SUMMARY
Model: "functional"
┏━━━━━━━━━━━━━━━━━━━━━━━━━━━━━━━━━┳━━━━━━━━━━━━━━━━━━━━━━━━┳━━━━━━━━━━━━━━━┓
┃ Layer (type)                    ┃ Output Shape           ┃       Param # ┃
┡━━━━━━━━━━━━━━━━━━━━━━━━━━━━━━━━━╇━━━━━━━━━━━━━━━━━━━━━━━━╇━━━━━━━━━━━━━━━┩
│ input_layer (InputLayer)        │ (None, 96, 96, 1)      │             0 │
├─────────────────────────────────┼────────────────────────┼───────────────┤
│ conv2d (Conv2D)                 │ (None, 48, 48, 11)     │            99 │
├─────────────────────────────────┼────────────────────────┼───────────────┤
│ batch_normalization             │ (None, 48, 48, 11)     │            44 │
│ (BatchNormalization)            │                        │               │
├─────────────────────────────────┼────────────────────────┼───────────────┤
│ re_lu (ReLU)                    │ (None, 48, 48, 11)     │             0 │
├─────────────────────────────────┼────────────────────────┼───────────────┤
│ depthwise_conv2d                │ (None, 48, 48, 11)     │            99 │
│ (DepthwiseConv2D)               │                        │               │
├─────────────────────────────────┼────────────────────────┼───────────────┤
│ batch_normalization_1           │ (None, 48, 48, 11)     │            44 │
│ (BatchNormalization)            │                        │               │
├─────────────────────────────────┼────────────────────────┼───────────────┤
│ re_lu_1 (ReLU)                  │ (None, 48, 48, 11)     │             0 │
├─────────────────────────────────┼────────────────────────┼───────────────┤
│ conv2d_1 (Conv2D)               │ (None, 48, 48, 5)      │            55 │
├─────────────────────────────────┼────────────────────────┼───────────────┤
│ batch_normalization_2           │ (None, 48, 48, 5)      │            20 │
│ (BatchNormalization)            │                        │               │
├─────────────────────────────────┼────────────────────────┼───────────────┤
│ conv2d_2 (Conv2D)               │ (None, 48, 48, 30)     │           150 │
├─────────────────────────────────┼────────────────────────┼───────────────┤
│ batch_normalization_3           │ (None, 48, 48, 30)     │           120 │
│ (BatchNormalization)            │                        │               │
├─────────────────────────────────┼────────────────────────┼───────────────┤
│ re_lu_2 (ReLU)                  │ (None, 48, 48, 30)     │             0 │
├─────────────────────────────────┼────────────────────────┼───────────────┤
│ depthwise_conv2d_1              │ (None, 24, 24, 30)     │           270 │
│ (DepthwiseConv2D)               │                        │               │
├─────────────────────────────────┼────────────────────────┼───────────────┤
│ batch_normalization_4           │ (None, 24, 24, 30)     │           120 │
│ (BatchNormalization)            │                        │               │
├─────────────────────────────────┼────────────────────────┼───────────────┤
│ re_lu_3 (ReLU)                  │ (None, 24, 24, 30)     │             0 │
├─────────────────────────────────┼────────────────────────┼───────────────┤
│ conv2d_3 (Conv2D)               │ (None, 24, 24, 8)      │           240 │
├─────────────────────────────────┼────────────────────────┼───────────────┤
│ batch_normalization_5           │ (None, 24, 24, 8)      │            32 │
│ (BatchNormalization)            │                        │               │
├─────────────────────────────────┼────────────────────────┼───────────────┤
│ conv2d_4 (Conv2D)               │ (None, 24, 24, 48)     │           384 │
├─────────────────────────────────┼────────────────────────┼───────────────┤
│ batch_normalization_6           │ (None, 24, 24, 48)     │           192 │
│ (BatchNormalization)            │                        │               │
├─────────────────────────────────┼────────────────────────┼───────────────┤
│ re_lu_4 (ReLU)                  │ (None, 24, 24, 48)     │             0 │
├─────────────────────────────────┼────────────────────────┼───────────────┤
│ depthwise_conv2d_2              │ (None, 24, 24, 48)     │           432 │
│ (DepthwiseConv2D)               │                        │               │
├─────────────────────────────────┼────────────────────────┼───────────────┤
│ batch_normalization_7           │ (None, 24, 24, 48)     │           192 │
│ (BatchNormalization)            │                        │               │
├─────────────────────────────────┼────────────────────────┼───────────────┤
│ re_lu_5 (ReLU)                  │ (None, 24, 24, 48)     │             0 │
├─────────────────────────────────┼────────────────────────┼───────────────┤
│ conv2d_5 (Conv2D)               │ (None, 24, 24, 8)      │           384 │
├─────────────────────────────────┼────────────────────────┼───────────────┤
│ batch_normalization_8           │ (None, 24, 24, 8)      │            32 │
│ (BatchNormalization)            │                        │               │
├─────────────────────────────────┼────────────────────────┼───────────────┤
│ conv2d_6 (Conv2D)               │ (None, 24, 24, 48)     │           384 │
├─────────────────────────────────┼────────────────────────┼───────────────┤
│ batch_normalization_9           │ (None, 24, 24, 48)     │           192 │
│ (BatchNormalization)            │                        │               │
├─────────────────────────────────┼────────────────────────┼───────────────┤
│ re_lu_6 (ReLU)                  │ (None, 24, 24, 48)     │             0 │
├─────────────────────────────────┼────────────────────────┼───────────────┤
│ depthwise_conv2d_3              │ (None, 12, 12, 48)     │           432 │
│ (DepthwiseConv2D)               │                        │               │
├─────────────────────────────────┼────────────────────────┼───────────────┤
│ batch_normalization_10          │ (None, 12, 12, 48)     │           192 │
│ (BatchNormalization)            │                        │               │
├─────────────────────────────────┼────────────────────────┼───────────────┤
│ re_lu_7 (ReLU)                  │ (None, 12, 12, 48)     │             0 │
├─────────────────────────────────┼────────────────────────┼───────────────┤
│ conv2d_7 (Conv2D)               │ (None, 12, 12, 11)     │           528 │
├─────────────────────────────────┼────────────────────────┼───────────────┤
│ batch_normalization_11          │ (None, 12, 12, 11)     │            44 │
│ (BatchNormalization)            │                        │               │
├─────────────────────────────────┼────────────────────────┼───────────────┤
│ conv2d_8 (Conv2D)               │ (None, 12, 12, 66)     │           726 │
├─────────────────────────────────┼────────────────────────┼───────────────┤
│ batch_normalization_12          │ (None, 12, 12, 66)     │           264 │
│ (BatchNormalization)            │                        │               │
├─────────────────────────────────┼────────────────────────┼───────────────┤
│ re_lu_8 (ReLU)                  │ (None, 12, 12, 66)     │             0 │
├─────────────────────────────────┼────────────────────────┼───────────────┤
│ depthwise_conv2d_4              │ (None, 12, 12, 66)     │           594 │
│ (DepthwiseConv2D)               │                        │               │
├─────────────────────────────────┼────────────────────────┼───────────────┤
│ batch_normalization_13          │ (None, 12, 12, 66)     │           264 │
│ (BatchNormalization)            │                        │               │
├─────────────────────────────────┼────────────────────────┼───────────────┤
│ re_lu_9 (ReLU)                  │ (None, 12, 12, 66)     │             0 │
├─────────────────────────────────┼────────────────────────┼───────────────┤
│ conv2d_9 (Conv2D)               │ (None, 12, 12, 11)     │           726 │
├─────────────────────────────────┼────────────────────────┼───────────────┤
│ batch_normalization_14          │ (None, 12, 12, 11)     │            44 │
│ (BatchNormalization)            │                        │               │
├─────────────────────────────────┼────────────────────────┼───────────────┤
│ global_average_pooling2d        │ (None, 11)             │             0 │
│ (GlobalAveragePooling2D)        │                        │               │
├─────────────────────────────────┼────────────────────────┼───────────────┤
│ dropout (Dropout)               │ (None, 11)             │             0 │
├─────────────────────────────────┼────────────────────────┼───────────────┤
│ dense (Dense)                   │ (None, 5)              │            60 │
└─────────────────────────────────┴────────────────────────┴───────────────┘
 Total params: 20,283 (79.23 KB)
 Trainable params: 6,461 (25.24 KB)
 Non-trainable params: 898 (3.51 KB)
 Optimizer params: 12,924 (50.49 KB)

Total Parameters: 7359

Test Loss: 1.2265498638153076
Test Accuracy: 0.6223316788673401
Test Macro F1: 0.6105434656194874

Classification Report:
              precision    recall  f1-score   support
…
Latency FP32 (ms): 86.3278
Latency INT8 (ms): 0.5504
Peak RAM usage (KB): 474.48
FLOPs: 5679170
MACs: 2839585.0
MMACs: 2.84

Energy per inference (J): 0.00013759374618530274
Energy per inference (mJ): 0.138

Operator used: 
['CONV_2D', 'DELEGATE', 'DEPTHWISE_CONV_2D', 'FULLY_CONNECTED', 'MEAN', 'SOFTMAX']
Model: B5_3_2_DW_All

Model: "functional_2"
┏━━━━━━━━━━━━━━━━━━━━━━━━━━━━━━━━━┳━━━━━━━━━━━━━━━━━━━━━━━━┳━━━━━━━━━━━━━━━┓
┃ Layer (type)                    ┃ Output Shape           ┃       Param # ┃
┡━━━━━━━━━━━━━━━━━━━━━━━━━━━━━━━━━╇━━━━━━━━━━━━━━━━━━━━━━━━╇━━━━━━━━━━━━━━━┩
│ input_layer_2 (InputLayer)      │ (None, 96, 96, 1)      │             0 │
├─────────────────────────────────┼────────────────────────┼───────────────┤
│ conv2d_10 (Conv2D)              │ (None, 96, 96, 8)      │            72 │
├─────────────────────────────────┼────────────────────────┼───────────────┤
│ batch_normalization_18          │ (None, 96, 96, 8)      │            32 │
│ (BatchNormalization)            │                        │               │
├─────────────────────────────────┼────────────────────────┼───────────────┤
│ re_lu_18 (ReLU)                 │ (None, 96, 96, 8)      │             0 │
├─────────────────────────────────┼────────────────────────┼───────────────┤
│ depthwise_conv2d_8              │ (None, 48, 48, 8)      │            72 │
│ (DepthwiseConv2D)               │                        │               │
├─────────────────────────────────┼────────────────────────┼───────────────┤
│ batch_normalization_19          │ (None, 48, 48, 8)      │            32 │
│ (BatchNormalization)            │                        │               │
├─────────────────────────────────┼────────────────────────┼───────────────┤
│ re_lu_19 (ReLU)                 │ (None, 48, 48, 8)      │             0 │
├─────────────────────────────────┼────────────────────────┼───────────────┤
│ conv2d_11 (Conv2D)              │ (None, 48, 48, 16)     │           128 │
├─────────────────────────────────┼────────────────────────┼───────────────┤
│ batch_normalization_20          │ (None, 48, 48, 16)     │            64 │
│ (BatchNormalization)            │                        │               │
├─────────────────────────────────┼────────────────────────┼───────────────┤
│ re_lu_20 (ReLU)                 │ (None, 48, 48, 16)     │             0 │
├─────────────────────────────────┼────────────────────────┼───────────────┤
│ depthwise_conv2d_9              │ (None, 24, 24, 16)     │           144 │
│ (DepthwiseConv2D)               │                        │               │
├─────────────────────────────────┼────────────────────────┼───────────────┤
│ batch_normalization_21          │ (None, 24, 24, 16)     │            64 │
│ (BatchNormalization)            │                        │               │
├─────────────────────────────────┼────────────────────────┼───────────────┤
│ re_lu_21 (ReLU)                 │ (None, 24, 24, 16)     │             0 │
├─────────────────────────────────┼────────────────────────┼───────────────┤
│ conv2d_12 (Conv2D)              │ (None, 24, 24, 24)     │           384 │
├─────────────────────────────────┼────────────────────────┼───────────────┤
│ batch_normalization_22          │ (None, 24, 24, 24)     │            96 │
│ (BatchNormalization)            │                        │               │
├─────────────────────────────────┼────────────────────────┼───────────────┤
│ re_lu_22 (ReLU)                 │ (None, 24, 24, 24)     │             0 │
├─────────────────────────────────┼────────────────────────┼───────────────┤
│ depthwise_conv2d_10             │ (None, 12, 12, 24)     │           216 │
│ (DepthwiseConv2D)               │                        │               │
├─────────────────────────────────┼────────────────────────┼───────────────┤
│ batch_normalization_23          │ (None, 12, 12, 24)     │            96 │
│ (BatchNormalization)            │                        │               │
├─────────────────────────────────┼────────────────────────┼───────────────┤
│ re_lu_23 (ReLU)                 │ (None, 12, 12, 24)     │             0 │
├─────────────────────────────────┼────────────────────────┼───────────────┤
│ conv2d_13 (Conv2D)              │ (None, 12, 12, 32)     │           768 │
├─────────────────────────────────┼────────────────────────┼───────────────┤
│ batch_normalization_24          │ (None, 12, 12, 32)     │           128 │
│ (BatchNormalization)            │                        │               │
├─────────────────────────────────┼────────────────────────┼───────────────┤
│ re_lu_24 (ReLU)                 │ (None, 12, 12, 32)     │             0 │
├─────────────────────────────────┼────────────────────────┼───────────────┤
│ depthwise_conv2d_11             │ (None, 6, 6, 32)       │           288 │
│ (DepthwiseConv2D)               │                        │               │
├─────────────────────────────────┼────────────────────────┼───────────────┤
│ batch_normalization_25          │ (None, 6, 6, 32)       │           128 │
│ (BatchNormalization)            │                        │               │
├─────────────────────────────────┼────────────────────────┼───────────────┤
│ re_lu_25 (ReLU)                 │ (None, 6, 6, 32)       │             0 │
├─────────────────────────────────┼────────────────────────┼───────────────┤
│ conv2d_14 (Conv2D)              │ (None, 6, 6, 48)       │         1,536 │
├─────────────────────────────────┼────────────────────────┼───────────────┤
│ batch_normalization_26          │ (None, 6, 6, 48)       │           192 │
│ (BatchNormalization)            │                        │               │
├─────────────────────────────────┼────────────────────────┼───────────────┤
│ re_lu_26 (ReLU)                 │ (None, 6, 6, 48)       │             0 │
├─────────────────────────────────┼────────────────────────┼───────────────┤
│ global_average_pooling2d_2      │ (None, 48)             │             0 │
│ (GlobalAveragePooling2D)        │                        │               │
├─────────────────────────────────┼────────────────────────┼───────────────┤
│ dropout_1 (Dropout)             │ (None, 48)             │             0 │
├─────────────────────────────────┼────────────────────────┼───────────────┤
│ dense_2 (Dense)                 │ (None, 5)              │           245 │
└─────────────────────────────────┴────────────────────────┴───────────────┘
 Total params: 4,685 (18.30 KB)
 Trainable params: 4,269 (16.68 KB)
 Non-trainable params: 416 (1.62 KB)


Total Parameters: 4685

Test Loss: 1.1211178302764893
Test Accuracy: 0.5796387791633606
Test Macro F1: 0.569692628109651

Classification Report:
              precision    recall  f1-score   support

           0       0.50      0.57      0.53        92
…
Latency INT8 (ms): 0.5662
Peak RAM usage (KB): 473.61
FLOPs: 3601182
MACs: 1800591.0
MMACs: 1.80

Energy per inference (J): 0.00014153838157653808
Energy per inference (mJ): 0.142

Operator used: 
['CONV_2D', 'DELEGATE', 'DEPTHWISE_CONV_2D', 'FULLY_CONNECTED', 'MEAN', 'SOFTMAX']
Model: B5_6_2_NanoMobileNetV3

MODEL SUMMARY
Model: "functional_2"
┏━━━━━━━━━━━━━━━━━━━━━┳━━━━━━━━━━━━━━━━━━━┳━━━━━━━━━━━━┳━━━━━━━━━━━━━━━━━━━┓
┃ Layer (type)        ┃ Output Shape      ┃    Param # ┃ Connected to      ┃
┡━━━━━━━━━━━━━━━━━━━━━╇━━━━━━━━━━━━━━━━━━━╇━━━━━━━━━━━━╇━━━━━━━━━━━━━━━━━━━┩
│ input_layer_2       │ (None, 96, 96, 1) │          0 │ -                 │
│ (InputLayer)        │                   │            │                   │
├─────────────────────┼───────────────────┼────────────┼───────────────────┤
│ conv2d_16 (Conv2D)  │ (None, 48, 48, 5) │         45 │ input_layer_2[0]… │
├─────────────────────┼───────────────────┼────────────┼───────────────────┤
│ batch_normalizatio… │ (None, 48, 48, 5) │         20 │ conv2d_16[0][0]   │
│ (BatchNormalizatio… │                   │            │                   │
├─────────────────────┼───────────────────┼────────────┼───────────────────┤
│ activation_16       │ (None, 48, 48, 5) │          0 │ batch_normalizat… │
│ (Activation)        │                   │            │                   │
├─────────────────────┼───────────────────┼────────────┼───────────────────┤
│ depthwise_conv2d_8  │ (None, 48, 48, 5) │         45 │ activation_16[0]… │
│ (DepthwiseConv2D)   │                   │            │                   │
├─────────────────────┼───────────────────┼────────────┼───────────────────┤
│ batch_normalizatio… │ (None, 48, 48, 5) │         20 │ depthwise_conv2d… │
│ (BatchNormalizatio… │                   │            │                   │
├─────────────────────┼───────────────────┼────────────┼───────────────────┤
│ activation_17       │ (None, 48, 48, 5) │          0 │ batch_normalizat… │
│ (Activation)        │                   │            │                   │
├─────────────────────┼───────────────────┼────────────┼───────────────────┤
│ global_average_poo… │ (None, 5)         │          0 │ activation_17[0]… │
│ (GlobalAveragePool… │                   │            │                   │
├─────────────────────┼───────────────────┼────────────┼───────────────────┤
│ dense_10 (Dense)    │ (None, 1)         │          6 │ global_average_p… │
├─────────────────────┼───────────────────┼────────────┼───────────────────┤
│ dense_11 (Dense)    │ (None, 5)         │         10 │ dense_10[0][0]    │
├─────────────────────┼───────────────────┼────────────┼───────────────────┤
│ reshape_4 (Reshape) │ (None, 1, 1, 5)   │          0 │ dense_11[0][0]    │
├─────────────────────┼───────────────────┼────────────┼───────────────────┤
│ multiply_4          │ (None, 48, 48, 5) │          0 │ activation_17[0]… │
│ (Multiply)          │                   │            │ reshape_4[0][0]   │
├─────────────────────┼───────────────────┼────────────┼───────────────────┤
│ conv2d_17 (Conv2D)  │ (None, 48, 48, 5) │         25 │ multiply_4[0][0]  │
├─────────────────────┼───────────────────┼────────────┼───────────────────┤
│ batch_normalizatio… │ (None, 48, 48, 5) │         20 │ conv2d_17[0][0]   │
│ (BatchNormalizatio… │                   │            │                   │
├─────────────────────┼───────────────────┼────────────┼───────────────────┤
│ conv2d_18 (Conv2D)  │ (None, 48, 48,    │        100 │ batch_normalizat… │
│                     │ 20)               │            │                   │
├─────────────────────┼───────────────────┼────────────┼───────────────────┤
…
│ (DepthwiseConv2D)   │ 24)               │            │                   │
├─────────────────────┼───────────────────┼────────────┼───────────────────┤
│ batch_normalizatio… │ (None, 12, 12,    │         96 │ depthwise_conv2d… │
│ (BatchNormalizatio… │ 24)               │            │                   │
├─────────────────────┼───────────────────┼────────────┼───────────────────┤
│ activation_23       │ (None, 12, 12,    │          0 │ batch_normalizat… │
│ (Activation)        │ 24)               │            │                   │
├─────────────────────┼───────────────────┼────────────┼───────────────────┤
│ global_average_poo… │ (None, 24)        │          0 │ activation_23[0]… │
│ (GlobalAveragePool… │                   │            │                   │
├─────────────────────┼───────────────────┼────────────┼───────────────────┤
│ dense_12 (Dense)    │ (None, 6)         │        150 │ global_average_p… │
├─────────────────────┼───────────────────┼────────────┼───────────────────┤
│ dense_13 (Dense)    │ (None, 24)        │        168 │ dense_12[0][0]    │
├─────────────────────┼───────────────────┼────────────┼───────────────────┤
│ reshape_5 (Reshape) │ (None, 1, 1, 24)  │          0 │ dense_13[0][0]    │
├─────────────────────┼───────────────────┼────────────┼───────────────────┤
│ multiply_5          │ (None, 12, 12,    │          0 │ activation_23[0]… │
│ (Multiply)          │ 24)               │            │ reshape_5[0][0]   │
├─────────────────────┼───────────────────┼────────────┼───────────────────┤
│ conv2d_23 (Conv2D)  │ (None, 12, 12,    │        336 │ multiply_5[0][0]  │
│                     │ 14)               │            │                   │
├─────────────────────┼───────────────────┼────────────┼───────────────────┤
│ batch_normalizatio… │ (None, 12, 12,    │         56 │ conv2d_23[0][0]   │
│ (BatchNormalizatio… │ 14)               │            │                   │
├─────────────────────┼───────────────────┼────────────┼───────────────────┤
│ global_average_poo… │ (None, 14)        │          0 │ batch_normalizat… │
│ (GlobalAveragePool… │                   │            │                   │
├─────────────────────┼───────────────────┼────────────┼───────────────────┤
│ dropout_1 (Dropout) │ (None, 14)        │          0 │ global_average_p… │
├─────────────────────┼───────────────────┼────────────┼───────────────────┤
│ dense_14 (Dense)    │ (None, 5)         │         75 │ dropout_1[0][0]   │
└─────────────────────┴───────────────────┴────────────┴───────────────────┘
 Total params: 8,374 (32.71 KB)
 Trainable params: 2,670 (10.43 KB)
 Non-trainable params: 362 (1.41 KB)
 Optimizer params: 5,342 (20.87 KB)

Total Parameters: 3032

Test Loss: 1.17781400680542
Test Accuracy: 0.5665024518966675
Macro F1: 0.5357215360992853

              precision    recall  f1-score   support
…
MACs: 1580509.0
MMACs: 1.58

Energy per inference (J): 0.0002824842929840088
Energy per inference (mJ): 0.282

Operator used: 
['CONV_2D', 'DELEGATE', 'DEPTHWISE_CONV_2D', 'FULLY_CONNECTED', 'HARD_SWISH', 'MEAN', 'MUL', 'PACK', 'RESHAPE', 'SHAPE', 'SOFTMAX', 'STRIDED_SLICE']
Model: B5_2_4_TinyESP32CNN

MODEL SUMMARY
Model: "sequential_10"
┏━━━━━━━━━━━━━━━━━━━━━━━━━━━━━━━━━┳━━━━━━━━━━━━━━━━━━━━━━━━┳━━━━━━━━━━━━━━━┓
┃ Layer (type)                    ┃ Output Shape           ┃       Param # ┃
┡━━━━━━━━━━━━━━━━━━━━━━━━━━━━━━━━━╇━━━━━━━━━━━━━━━━━━━━━━━━╇━━━━━━━━━━━━━━━┩
│ conv2d_18 (Conv2D)              │ (None, 96, 96, 8)      │            80 │
├─────────────────────────────────┼────────────────────────┼───────────────┤
│ max_pooling2d_18 (MaxPooling2D) │ (None, 48, 48, 8)      │             0 │
├─────────────────────────────────┼────────────────────────┼───────────────┤
│ conv2d_19 (Conv2D)              │ (None, 48, 48, 16)     │         1,168 │
├─────────────────────────────────┼────────────────────────┼───────────────┤
│ max_pooling2d_19 (MaxPooling2D) │ (None, 24, 24, 16)     │             0 │
├─────────────────────────────────┼────────────────────────┼───────────────┤
│ conv2d_20 (Conv2D)              │ (None, 24, 24, 32)     │         4,640 │
├─────────────────────────────────┼────────────────────────┼───────────────┤
│ max_pooling2d_20 (MaxPooling2D) │ (None, 12, 12, 32)     │             0 │
├─────────────────────────────────┼────────────────────────┼───────────────┤
│ global_average_pooling2d_6      │ (None, 32)             │             0 │
│ (GlobalAveragePooling2D)        │                        │               │
├─────────────────────────────────┼────────────────────────┼───────────────┤
│ dense_12 (Dense)                │ (None, 32)             │         1,056 │
├─────────────────────────────────┼────────────────────────┼───────────────┤
│ dropout_3 (Dropout)             │ (None, 32)             │             0 │
├─────────────────────────────────┼────────────────────────┼───────────────┤
│ dense_13 (Dense)                │ (None, 5)              │           165 │
└─────────────────────────────────┴────────────────────────┴───────────────┘
 Total params: 21,329 (83.32 KB)
 Trainable params: 7,109 (27.77 KB)
 Non-trainable params: 0 (0.00 B)
 Optimizer params: 14,220 (55.55 KB)



Total Parameters: 7109

Test Loss: 1.365838646888733
Test Accuracy: 0.4334975481033325
Macro F1: 0.39242040014397084

Classification Report:
              precision    recall  f1-score   support
…
Latency FP32 (ms): 64.2820
Latency INT8 (ms): 0.5991

Peak RAM usage (KB): 472.98
FLOPs: 12209022
MACs: 6104511.0
MMACs: 6.10

Energy per inference (J): 0.000149768590927124
Energy per inference (mJ): 0.150

Operator used: 
['CONV_2D', 'DELEGATE', 'FULLY_CONNECTED', 'MAX_POOL_2D', 'MEAN', 'SOFTMAX']
MODEL: B5_7_1_SqueezeNetTiny

MODEL SUMMARY
Model: "functional_6"
┏━━━━━━━━━━━━━━━━━━━━━┳━━━━━━━━━━━━━━━━━━━┳━━━━━━━━━━━━┳━━━━━━━━━━━━━━━━━━━┓
┃ Layer (type)        ┃ Output Shape      ┃    Param # ┃ Connected to      ┃
┡━━━━━━━━━━━━━━━━━━━━━╇━━━━━━━━━━━━━━━━━━━╇━━━━━━━━━━━━╇━━━━━━━━━━━━━━━━━━━┩
│ input_layer_6       │ (None, 96, 96, 1) │          0 │ -                 │
│ (InputLayer)        │                   │            │                   │
├─────────────────────┼───────────────────┼────────────┼───────────────────┤
│ conv2d_78 (Conv2D)  │ (None, 48, 48,    │        160 │ input_layer_6[0]… │
│                     │ 16)               │            │                   │
├─────────────────────┼───────────────────┼────────────┼───────────────────┤
│ max_pooling2d_12    │ (None, 24, 24,    │          0 │ conv2d_78[0][0]   │
│ (MaxPooling2D)      │ 16)               │            │                   │
├─────────────────────┼───────────────────┼────────────┼───────────────────┤
│ conv2d_79 (Conv2D)  │ (None, 24, 24, 8) │        136 │ max_pooling2d_12… │
├─────────────────────┼───────────────────┼────────────┼───────────────────┤
│ depthwise_conv2d_24 │ (None, 24, 24, 8) │         80 │ conv2d_79[0][0]   │
│ (DepthwiseConv2D)   │                   │            │                   │
├─────────────────────┼───────────────────┼────────────┼───────────────────┤
│ conv2d_80 (Conv2D)  │ (None, 24, 24,    │        144 │ conv2d_79[0][0]   │
│                     │ 16)               │            │                   │
├─────────────────────┼───────────────────┼────────────┼───────────────────┤
│ conv2d_81 (Conv2D)  │ (None, 24, 24,    │        144 │ depthwise_conv2d… │
│                     │ 16)               │            │                   │
├─────────────────────┼───────────────────┼────────────┼───────────────────┤
│ concatenate_24      │ (None, 24, 24,    │          0 │ conv2d_80[0][0],  │
│ (Concatenate)       │ 32)               │            │ conv2d_81[0][0]   │
├─────────────────────┼───────────────────┼────────────┼───────────────────┤
│ conv2d_82 (Conv2D)  │ (None, 24, 24, 8) │        264 │ concatenate_24[0… │
├─────────────────────┼───────────────────┼────────────┼───────────────────┤
│ depthwise_conv2d_25 │ (None, 24, 24, 8) │         80 │ conv2d_82[0][0]   │
│ (DepthwiseConv2D)   │                   │            │                   │
├─────────────────────┼───────────────────┼────────────┼───────────────────┤
│ conv2d_83 (Conv2D)  │ (None, 24, 24,    │        144 │ conv2d_82[0][0]   │
│                     │ 16)               │            │                   │
├─────────────────────┼───────────────────┼────────────┼───────────────────┤
…
